/home/lq/anaconda3/lib/python3.6/site-packages/h5py/__init__.py:36: FutureWarning: Conversion of the second argument of issubdtype from `float` to `np.floating` is deprecated. In future, it will be treated as `np.float64 == np.dtype(float).type`.
  from ._conv import register_converters as _register_converters
Using TensorFlow backend.
_________________________________________________________________
Layer (type)                 Output Shape              Param #   
=================================================================
input_1 (InputLayer)         (None, 16, 112, 112, 3)   0         
_________________________________________________________________
conv3d_1 (Conv3D)            (None, 16, 112, 112, 64)  5248      
_________________________________________________________________
max_pooling3d_1 (MaxPooling3 (None, 8, 56, 112, 64)    0         
_________________________________________________________________
conv3d_2 (Conv3D)            (None, 8, 56, 112, 128)   221312    
_________________________________________________________________
max_pooling3d_2 (MaxPooling3 (None, 4, 28, 56, 128)    0         
_________________________________________________________________
conv3d_3 (Conv3D)            (None, 4, 28, 56, 256)    884992    
_________________________________________________________________
max_pooling3d_3 (MaxPooling3 (None, 2, 14, 28, 256)    0         
_________________________________________________________________
conv3d_4 (Conv3D)            (None, 2, 14, 28, 256)    1769728   
_________________________________________________________________
max_pooling3d_4 (MaxPooling3 (None, 1, 7, 14, 256)     0         
_________________________________________________________________
conv3d_5 (Conv3D)            (None, 1, 7, 14, 256)     1769728   
_________________________________________________________________
max_pooling3d_5 (MaxPooling3 (None, 1, 4, 7, 256)      0         
_________________________________________________________________
flatten_1 (Flatten)          (None, 7168)              0         
_________________________________________________________________
dense_1 (Dense)              (None, 2048)              14682112  
_________________________________________________________________
dropout_1 (Dropout)          (None, 2048)              0         
_________________________________________________________________
dense_2 (Dense)              (None, 2048)              4196352   
_________________________________________________________________
dropout_2 (Dropout)          (None, 2048)              0         
_________________________________________________________________
dense_3 (Dense)              (None, 21)                43029     
_________________________________________________________________
activation_1 (Activation)    (None, 21)                0         
=================================================================
Total params: 23,572,501
Trainable params: 23,572,501
Non-trainable params: 0
_________________________________________________________________
Traceback (most recent call last):
  File "train.py", line 228, in <module>
    main()
  File "train.py", line 184, in main
    model.load_weights('data/conv3d_deepnetA_sport1m_iter_1900000_TF.model', by_name=True)
…
